notebooks/eda/bilstm_encoder.pth (torch, 236190 bytes, 11 tensors)

embed.weight f4 [44, 32]
000000 00 00 00 00 00 00 00 00 00 00 00 00 00 00 00 00
       0.0 0.0 0.0 0.0
000010 00 00 00 00 00 00 00 00 00 00 00 00 00 00 00 00
       0.0 0.0 0.0 0.0
000020 00 00 00 00 00 00 00 00 00 00 00 00 00 00 00 00
       0.0 0.0 0.0 0.0
000030 00 00 00 00 00 00 00 00 00 00 00 00 00 00 00 00
       0.0 0.0 0.0 0.0
000040 00 00 00 00 00 00 00 00 00 00 00 00 00 00 00 00
       0.0 0.0 0.0 0.0
000050 00 00 00 00 00 00 00 00 00 00 00 00 00 00 00 00
       0.0 0.0 0.0 0.0
000060 00 00 00 00 00 00 00 00 00 00 00 00 00 00 00 00
       0.0 0.0 0.0 0.0
000070 00 00 00 00 00 00 00 00 00 00 00 00 00 00 00 00
       0.0 0.0 0.0 0.0
000080 fd 99 0c 3e d0 a9 32 3f c3 3f e4 3e 93 0e b5 bd
       0.13730617 0.69790363 0.44579896 -0.088406704
000090 4b f9 35 40 52 57 4d 3f 50 c1 c4 3f 2e 81 04 3f
       2.8433406 0.80211365 1.5371494 0.5175961
0000a0 e8 ad e3 be 5d 2f ab bf d6 25 c7 3f 8b 4a 38 3f
       -0.44468617 -1.3373829 1.5558422 0.71988744
0000b0 56 f4 59 bf d8 be 28 c0 1e 26 63 3e 9d d9 ba be
       -0.8513845 -2.6366482 0.2218251 -0.3649415
0000c0 b8 5c 95 be 5b 6f 0b bf 42 15 b3 3f c8 bc 91 3f
       -0.291723 -0.5446679 1.3990862 1.1385736
0000d0 5b f7 95 3f 15 87 1e 3f 53 c3 a6 bf 1c ba 93 3f
       1.1716112 0.6192487 -1.3028358 1.1541171
0000e0 71 e7 1e 3e 65 df 1a 3e cf 6a 66 3d 04 41 45 3e
       0.15517975 0.15124281 0.056254204 0.19263083
0000f0 47 83 e6 3d 77 58 27 be e9 71 68 bf 8c 13 3a 3e
       0.11255508 -0.1634234 -0.90798813 0.18171519
000100 b7 78 a8 3f 8d e6 76 3c 62 4b 18 3f e8 1c c9 3f
       1.3161839 0.015069616 0.59490025 1.5711946
000110 09 b4 08 40 53 a9 11 be 7a bf 0e bf c1 a1 3b bf
       2.1359885 -0.14224748 -0.5576092 -0.7329369
000120 33 13 5a 3f ec 41 89 be 90 18 81 3e 5b 61 80 bd
       0.85185546 -0.26808107 0.25214052 -0.06268569
000130 96 7a 40 be 61 61 28 3f 9c 8d 55 c0 45 af 18 bf
       -0.18796763 0.6577359 -3.3367682 -0.5964244
000140 ac 0e 11 3f 99 42 67 3f 79 e0 6d bf 64 65 09 40
       0.5666301 0.90335995 -0.92920643 2.1468134
000150 19 6e 07 40 98 31 81 3e c6 d8 1a 3f 9c 62 02 3d
       2.1160948 0.2523315 0.6048702 0.031832322
000160 2f ab 06 40 00 db 29 bf c2 8b 15 40 c2 32 75 3f
       2.1041982 -0.6634979 2.3366551 0.95780575
000170 6f de 3c bf 08 66 33 bf af 04 5f 3f fb dd 46 3e
       -0.73776907 -0.7007756 0.8711652 0.19420616
000180 0a 08 46 3e 4e 42 04 bf 60 0f a5 3d 13 d0 fa be
       0.19339004 -0.5166367 0.08059573 -0.48986873
000190 ee 64 c7 3c c3 f7 d8 3f 26 fe 5b 3f 16 1e b5 3f
       0.02434012 1.6950611 0.85934675 1.4149806
0001a0 2e 0b 3a bf b6 64 e2 3f c5 22 b2 3f a3 41 15 40
       -0.7267331 1.7686985 1.3916861 2.3321311
0001b0 60 6a a3 3f 69 f2 fa 3e ea 83 20 bf 89 ef 04 3f
       1.2766838 0.4901307 -0.62701285 0.51928
0001c0 8f 43 f6 3f 90 c8 59 bf 7d c3 ed 3f b7 b1 26 3e
       1.9239367 -0.8507166 1.8575283 0.1627873
0001d0 e2 0d d5 be 59 52 09 be c6 10 a2 3f d8 63 1c be
       -0.41612154 -0.1341032 1.2661369 -0.15272462
0001e0 25 a5 b8 be dd 22 67 be d6 9c ad 3f dd 1d 49 3a
       -0.36063495 -0.22571893 1.3563488 0.00076719915
0001f0 76 ad 92 bf da 46 0c 40 26 4a 61 bf 2e 1d 0d 40
       -1.1459186 2.1918244 -0.88003767 2.204906
000200 db bb 49 be ef 46 bd be 2f 77 95 3e fd 40 32 3c
       -0.19700567 -0.3696818 0.29192492 0.010879752
000210 f6 4e d8 3e 0c 8e 62 be 6b de 1b c0 5e b7 86 bc
       0.42247742 -0.22124499 -2.4354503 -0.016444858
000220 2e cd c2 bd 79 da 2c 3e ef 1c 5d 40 7f 51 e8 bf
       -0.09511791 0.16880216 3.454891 -1.8149871
000230 65 b2 f1 3f 07 cd bd 3f a2 18 40 be a2 e4 8a 3f
       1.8882567 1.4828194 -0.18759397 1.0851023
000240 b7 6a 17 c0 90 55 85 be b5 e5 bb 3d 93 7a 57 bf
       -2.3658884 -0.26041842 0.091746725 -0.8417141
000250 70 08 8a 3f e2 c4 2b bf 0f c8 de bf b0 2c a0 bf
       1.0783825 -0.67097294 -1.7404803 -1.2513638
000260 d8 0c 14 3f d2 cf 87 3e 33 f8 8c be 91 b7 0c 40
       0.578321 0.26525742 -0.2753311 2.198704
000270 76 11 4b 3f 2d 64 b2 3e 25 48 93 bf 56 bb af 3e
       0.7932352 0.34842053 -1.1506392 0.34322613
000280 54 e4 c4 3f 6f 39 95 bf 9f d2 a6 be 79 a9 a6 bf
       1.538218 -1.1658152 -0.32582566 -1.3020469
000290 2a 0d a3 3f 6d 0b 6b 3e 3a 39 5d bf 9f 2d 50 3f
       1.2738392 0.22953577 -0.86415446 0.8131961
0002a0 43 f6 cb 3f 7c 75 01 3e f6 6f 66 bf 9e fd ef bf
       1.5934528 0.12642473 -0.9001459 -1.8749273
0002b0 2b bf 97 bd 81 01 f0 3e fb d2 bf 3e 5e c0 e7 bf
       -0.07409509 0.46876147 0.37465653 -1.8105581
0002c0 03 43 04 c0 5a 9f a5 be 8f 6c 66 bf b9 56 c6 3f
       -2.06659 -0.32348138 -0.900094 1.5495216
0002d0 22 03 2f bf cb c7 cc bf bd 92 91 bf b9 e6 eb 3f
       -0.68364155 -1.5998472 -1.1372906 1.8429786
0002e0 4a 09 84 3f 9a 06 09 3f ca 4c 4c 3f 3a 32 3e 3e
       1.0315335 0.535257 0.7980467 0.18573847
0002f0 90 2b 36 bf 46 1c b3 3d 94 a9 93 3d e3 5f af 3f
       -0.7116022 0.08745627 0.07210079 1.3701137
000300 aa 8e 1c 3e ec bb 82 bd cc 71 8a bf e1 ba 47 3e
       0.15288797 -0.063834995 -1.0815978 0.19504882
000310 97 37 55 be 3b a6 d4 3f 18 3b 7c 3d 60 bb 8a 3f
       -0.20821987 1.661323 0.061579794 1.0838432
000320 49 7c 6a bf 05 d3 38 bf 61 49 51 bf ba a7 df 3f
       -0.91595894 -0.7219699 -0.8175259 1.7473061
000330 6e 23 dd bf 51 76 cd bf 4a d6 80 bf 52 a3 c3 be
       -1.7276437 -1.6051732 -1.0065396 -0.3821054
000340 79 dc 48 bf a8 37 e4 be e7 a0 e7 3f be 62 a8 3d
       -0.78461415 -0.44573712 1.8095978 0.082219586
000350 19 73 82 3e 03 fd 6e bf 4f b8 79 3f 01 2c ca be
       0.25478438 -0.93354815 0.9754686 -0.39486697
000360 66 c3 18 3f 7d 35 b2 3f d2 5c 3c 3f 5b e6 3d 3f
       0.59673154 1.3922573 0.7357913 0.7417962
000370 04 9b 22 40 fd 69 7c 3d a3 9a 0c 40 88 88 46 3f
       2.5407114 0.061624516 2.1969383 0.7755208
000380 fb af 3b 3f 2b ba 43 bb 50 7e 95 3f df 42 26 3b
       0.733154 -0.0029865603 1.1679173 0.0025369448
000390 5a 4e 8c 3f c1 be 76 3f c7 6b 1b bf 0f ee 53 3f
       1.0961411 0.9638482 -0.6071133 0.82785124
0003a0 5f 7d 16 bf 90 e5 e0 3f 47 51 23 3f f1 cc 57 bf
       -0.5878505 1.7570057 0.63795894 -0.8429709
0003b0 a6 bb a7 3e 35 85 9a bf 4a 32 2b bf a5 ec 4f bd
       0.32760352 -1.2071902 -0.6687361 -0.05076279
0003c0 b9 63 fa be 00 86 ad 3e 1b c2 07 3e 11 f2 4c bf
       -0.48904207 0.33891296 0.13257639 -0.80056864
0003d0 a0 30 6f bf 46 8a 04 3f 80 2d 2a 3e 0d 2b b4 bf
       -0.9343357 0.5177349 0.1661892 -1.4075638
0003e0 50 4b 04 40 57 3e fb 3e 7c c9 75 3f 37 aa 07 3d
       2.0670967 0.49071 0.96010566 0.033121314
0003f0 ba 27 06 3f f1 30 58 3f 4d 13 58 3f a0 92 42 3e
       0.5240437 0.8444968 0.8440445 0.19001245

lstm.weight_ih_l0 f4 [256, 32]
000000 e6 d2 49 be dd bb 99 3e 21 cd 94 3e 0b db 13 be
       -0.19709358 0.3002614 0.2906275 -0.14439027
000010 c4 30 50 3d 42 2a 17 be fa fc b7 3e a5 dc bb 3d
       0.050827757 -0.14762214 0.35935193 0.09172944
000020 3a e0 f3 bd d5 25 08 3e e6 f7 14 3e 14 f2 3a 3e
       -0.11908002 0.13295682 0.14547691 0.18256408
000030 f9 06 5c be de 8a 16 3d 7d 0b bb 3d 6a 5e 5e be
       -0.21487035 0.036753528 0.091330506 -0.21715704
000040 0a fa f6 bd a5 ec 20 bc 30 1e 01 3f ca 10 ec 3b
       -0.1205941 -0.009822045 0.5043669 0.00720415
000050 2d ac f7 ba f9 c8 b4 3e 51 4d 40 bd a1 d3 13 be
       -0.0018895917 0.3530958 -0.046948735 -0.14436199
000060 50 57 e0 3d 18 8c 96 3d ba 7b 9c 3e 12 8f db bc
       0.109541535 0.073509395 0.30563146 -0.02680162
000070 8a 14 b4 bd ed e2 08 3d ee 33 cc 3d f0 34 8e be
       -0.0879298 0.03341954 0.09970842 -0.27774763
000080 b7 2e 69 3d 3a 02 81 bc 20 4d 04 3d 29 dc aa 3d
       0.056929316 -0.015748132 0.032300115 0.083427735
000090 4c c6 9b bc db 63 06 bd 55 03 7c 3c 2b ae 80 3e
       -0.019015454 -0.032810073 0.015381654 0.2513288
0000a0 7a 66 a6 bd d4 89 94 3d 3b 63 57 3d 1b f1 2a 3e
       -0.081250146 0.07252851 0.052584868 0.16693537
0000b0 32 e1 c8 bb 96 af 85 3e 5e c2 0c bf a5 fa d6 bd
       -0.006130361 0.26110524 -0.5498408 -0.104970254
0000c0 f9 2f 10 3e 3d 6b 26 3e 8c 36 a0 3c db 02 dc 3d
       0.140808 0.16251846 0.01955726 0.10742732
0000d0 b9 c7 90 bc 58 1f 2d 3d 50 28 9e 3e 89 e8 cb bd
       -0.01767336 0.04226622 0.3089013 -0.09956462
0000e0 d0 df ad 3e 15 23 3b be 25 b7 b8 3d 12 f0 ed bc
       0.33959818 -0.18275101 0.09019307 -0.029045139
0000f0 21 ef c9 3d f3 ad 61 bc a0 50 e0 b8 58 1e 28 be
       0.09860063 -0.013774383 -0.0001069617 -0.16417825
000100 2f a5 ba 3d 60 3e a4 3d 06 11 50 3e 53 a7 fc 3d
       0.091135375 0.080197096 0.20318994 0.12336602
000110 3d 15 ae 3c f8 1e 05 3d d5 50 a0 3d 60 18 b8 be
       0.021250362 0.032500237 0.078279175 -0.35956097
000120 05 4d a8 3c 0a 56 21 3d 45 8a 37 3e e2 0e 3c bd
       0.020544538 0.039388694 0.1792384 -0.04591263
000130 fb d2 35 bd 55 b0 ae bd 08 11 d6 be c5 2d d9 bd
       -0.04439066 -0.085297264 -0.4180987 -0.10604433
000140 da 5f c6 3d b9 41 f4 3d 51 0e 89 3d 79 95 c0 3d
       0.09686251 0.11926598 0.06692184 0.0940351
000150 bd ba 26 3d 10 f2 2e bd 8d db f2 bd d6 83 30 3d
       0.04070543 -0.042711318 -0.11858282 0.04309448
000160 9d 68 1c 3e ab 22 06 be b0 60 bb bd 9c 99 72 3e
       0.15274282 -0.13099162 -0.09149301 0.2369141
000170 09 1a 94 3e 03 ab dc bc 1a 9f d1 3d 92 49 1b be
       0.28926113 -0.026937013 0.10235424 -0.15164784
000180 b7 bc 26 3d 6e 4d 00 be c7 d8 05 3e 85 93 b0 bc
       0.040707316 -0.12529537 0.13070975 -0.021554718
000190 91 b4 46 3e 70 b3 45 be 9d 4b 8d 3b 5e 6d 06 be
       0.19404818 -0.19306731 0.0043119923 -0.13127658
0001a0 5d ce 74 3c 53 d7 b5 3d 0f 7c 9b bd 92 76 43 3d
       0.014941779 0.088789605 -0.07592022 0.0477205
0001b0 09 4f 74 3b 15 7e d0 3d da ce 47 bd f0 cf ee 3d
       0.0037278554 0.10180298 -0.048781253 0.11660755
0001c0 cc 53 15 3e ef 48 40 3e 88 74 fd 3d c8 04 1f bd
       0.14582747 0.18777822 0.12375742 -0.03882292
0001d0 b2 34 30 be 81 f3 93 3e c5 79 bf 3c 5e b1 f2 bd
       -0.17207602 0.28896716 0.023373494 -0.11850236
0001e0 44 dd e2 bd cb f7 d0 3d 30 32 cb 3d 8b bd eb 3e
       -0.11077359 0.10203513 0.09921682 0.46043047
0001f0 15 de 0a be 7e 88 2f be 88 c0 d6 bd 0c 11 63 3e
       -0.1356128 -0.17141911 -0.10485941 0.22174472
000200 e8 3b 36 be 72 4b 3a be 4b b8 62 be 7b ca ea bd
       -0.1779629 -0.18192843 -0.22140615 -0.11464401
000210 22 03 57 3e 9e 36 d8 bd cd 9a 45 3d ec 7e a9 3e
       0.20997289 -0.105572924 0.048243333 0.33104646
000220 7f 57 6d 3e 5b 34 36 be 63 6d 3f 3d e5 25 3b 3e
       0.23177908 -0.1779341 0.04673518 0.18276174
000230 8a 9d 32 3d 9b 51 f3 3d c4 ed 20 be 29 b7 4b 3d
       0.043607272 0.118807994 -0.157157 0.049735222
000240 b5 e8 9d 3c e3 2a 3b 3c ab f7 74 3e 61 f3 cf bd
       0.019276002 0.011423799 0.23922603 -0.10153843
000250 0e da 03 be 51 45 25 3e c4 39 5c 3c cd cb 92 bd
       -0.1287615 0.16139723 0.013441507 -0.07167778
000260 62 f1 86 3e f5 f4 f4 bd 56 20 0d be fa a2 47 be
       0.26356035 -0.11960784 -0.13781866 -0.19495764
000270 33 de bc be 28 85 2c 3d 1b e6 af 3d 29 63 10 3d
       -0.36888275 0.042119175 0.08588811 0.035250816
000280 f4 3d 5f 3e 5f 96 cd 3e 89 a2 a4 3e 68 92 f4 3e
       0.21800977 0.40153787 0.32155254 0.4776795
000290 98 ce 43 3d 21 2b c9 3e 3d 66 d4 3e be d4 8b 3e
       0.047804445 0.39290717 0.41484252 0.27310747
0002a0 00 61 88 3d 98 d5 b9 3d 96 b8 81 3d 82 7e 36 3d
       0.06659126 0.09073943 0.06334035 0.04455424
0002b0 34 e4 c4 be 8e ff c3 bc e0 c6 29 be 89 1e ec be
       -0.38455355 -0.023925569 -0.16579771 -0.46117046
0002c0 02 45 08 3e 35 4f 9a be be 82 7d bd 97 c3 04 3e
       0.13307574 -0.30138555 -0.061892264 0.12965237
0002d0 7d 63 ff 3e 73 71 6e be d2 01 7c 3c 67 ec c0 3e
       0.4988059 -0.23285465 0.015381293 0.3768036
0002e0 82 20 58 3e 9c 11 17 bf 20 1d a4 bd 02 b4 48 be
       0.21106151 -0.59011245 -0.08013368 -0.19599918
0002f0 b8 f8 8b 3e 3f 64 cc be 4d d8 25 3e ec 35 de 3d
       0.27338195 -0.39920232 0.16195793 0.108501285
000300 ea c5 a2 bd ef 88 4b bb af e6 62 3e 82 d3 df 3e
       -0.07947905 -0.003105696 0.22158311 0.43716055
000310 25 2e 43 3d 15 06 08 3e 0c b4 7f bd 8c 20 2d be
       0.04765143 0.1328357 -0.062427565 -0.16906947
000320 5e 97 28 be 18 50 57 3d 91 2d a0 3e 3a 58 a6 be
       -0.16463992 0.052566618 0.31284764 -0.32489187
000330 ec 85 b2 3d 83 14 59 3e c4 f6 94 be 66 7d 6f be
       0.0871695 0.21199231 -0.29094517 -0.2338768
000340 64 b5 be 3e ee 0e 67 3e c6 b6 df be ff fc 13 be
       0.37247765 0.22564289 -0.43694133 -0.14451979
000350 81 c5 b2 bd 9a 10 93 bc 78 fe 30 3e 3e 1a 37 3c
       -0.08729077 -0.017952252 0.17284572 0.01117569
000360 c9 7d 46 3e d0 21 4e 3c 5d fe e7 bd 3d ad 26 be
       0.1938392 0.012581304 -0.11327813 -0.16277023
000370 28 be 5b 3e 44 28 43 be 30 95 e3 3d 76 e1 98 bd
       0.21459258 -0.19058329 0.1111244 -0.07464878
000380 58 69 15 3e 12 26 4e 3e 2c c6 81 bd 47 4c bf 3e
       0.14590967 0.2013171 -0.063366264 0.37362882
000390 15 f4 e3 bd c3 ec a6 3e 46 2e 9f bc d6 f3 98 3d
       -0.11130539 0.3260251 -0.019431245 0.07468383
0003a0 04 d0 76 be 56 01 05 3d e5 da 0a be 64 c9 bf 3d
       -0.24102789 0.032471977 -0.13560064 0.09364584
0003b0 fc ea a7 bd 3b 66 61 3e 2e e6 d9 be 4c fb 66 be
       -0.081991166 0.22011654 -0.42558426 -0.225568
0003c0 09 02 37 3e a2 ad 2a 3e 91 c2 92 bd d2 2e e7 3d
       0.1787187 0.16667798 -0.07166017 0.11288227
0003d0 96 7f 86 3e ba 32 95 be 2f 2e e1 3e ba 99 0b 3e
       0.26269215 -0.29140264 0.43980548 0.13632861
0003e0 8d 75 8b 3e 08 91 9a be 05 5e 1d be 5d 84 8f be
       0.27238122 -0.30188775 -0.15367897 -0.28030673
0003f0 cb 1a 22 3e ed da ef bd 5d 94 d3 3e e8 89 06 be
       0.15830533 -0.11711679 0.4132413 -0.13138545

lstm.weight_hh_l0 f4 [256, 64]
000000 60 fa f2 3d 9f b1 4b be dc 76 40 3e 5d da 51 3d
       0.118641615 -0.19891976 0.18795341 0.051233638
000010 c2 71 90 3d 91 fb 40 3d ac 70 57 bd 05 6d 8f bd
       0.070529476 0.047114912 -0.052597687 -0.07003216
000020 80 47 89 bd c7 4e 26 bc b1 8e 9c 3d 96 f8 f8 b9
       -0.06703091 -0.010150618 0.07644404 -0.00047487457
000030 00 4b c2 3d a7 13 e8 3b 1e 3e 12 3e 36 55 6a 3d
       0.09486961 0.007082421 0.14281508 0.05721017
000040 75 31 53 bd 9d f7 8e be cf 6b d2 bd 75 c7 f1 3d
       -0.051560838 -0.2792329 -0.10274469 0.118056215
000050 7b 4a 15 be 84 52 52 3e d1 3a 08 be 83 ed 08 bd
       -0.14579193 0.2053929 -0.13303687 -0.033429634
000060 1f be a0 3d e1 83 08 3e 5f 65 02 be 8a 69 a3 3e
       0.07848763 0.13331558 -0.12733983 0.31916457
000070 55 df ba 3d fb 3f 90 be cf d7 ad 3d a7 fa be 3c
       0.091246285 -0.28173813 0.08488428 0.02331288
000080 97 9b d1 bc f2 ec e1 bc e3 db 58 3e 66 fb 25 3e
       -0.025586886 -0.027578805 0.2117763 0.16209182
000090 26 d4 e8 bd c8 5f 0d 3e 86 85 7e 3a 90 73 c8 3c
       -0.11368589 0.13806069 0.00097092276 0.024469167
0000a0 b9 4d b5 bd 2f fc e5 3d 6d 02 eb 3d 69 50 16 3e
       -0.08852715 0.11229741 0.11475072 0.14679112
0000b0 09 7b a7 bd 2f 91 6a 3c bb cc cf 3c 1e bb 85 bc
       -0.08177764 0.014316841 0.025366178 -0.016324576
0000c0 aa 63 a4 be 50 66 96 3d 0f 20 32 3e c2 25 cb 3c
       -0.32107288 0.07343733 0.17395042 0.024798278
0000d0 fb 66 d8 3d 58 82 3d 3e 82 1c 75 3e d2 ed 71 bd
       0.10566517 0.18506753 0.23936656 -0.059064694
0000e0 b4 92 7f 3e 7f d3 66 3d d2 71 87 be 9b 3a 09 3d
       0.24958307 0.056354042 -0.26454026 0.033503156
0000f0 e7 cf 0d bd 4f 9f 88 3e 7f 22 b3 bd 6e 4e 1b be
       -0.0346221 0.26684043 -0.08746814 -0.15166637
000100 e4 40 9d 3e 77 22 2d 3e eb 67 ca be d4 7b ae bd
       0.3071357 0.16907679 -0.39532408 -0.08519712
000110 4b 56 e5 3d e0 05 b9 bd ea fe 6d be 7f 68 b1 3e
       0.111981 -0.09034324 -0.23241773 0.34650037
000120 a4 a8 62 be b2 d0 49 3e 87 24 c5 bd dd 58 1d bf
       -0.22134644 0.19708517 -0.09626108 -0.6146372
000130 f0 b9 e1 bd b1 b8 81 bd 41 23 37 be 65 16 03 3e
       -0.11021793 -0.06334055 -0.17884542 0.12801512
000140 c6 06 c0 be 50 01 ba 3e ec d5 e8 bd 98 6b b1 be
       -0.37505168 0.36329126 -0.11368927 -0.346524
000150 51 a8 f8 be 3b eb 04 3e fe bd e1 3b 81 e1 e6 3e
       -0.48565915 0.12980358 0.006889104 0.4509392
000160 93 01 3a 3e e0 63 40 3e 5a 14 41 3e c6 49 21 3e
       0.18164663 0.187881 0.1885542 0.15750799
000170 8d 6f af 3e 38 c6 af 3e fa 16 c8 be 84 2e ab 3c
       0.34264794 0.34330916 -0.3908003 0.020896204
000180 43 b8 b6 be 97 8b 23 3e e9 4b aa be e1 bc 1e bf
       -0.35687456 0.15971218 -0.3326104 -0.62006956
000190 47 63 31 3e 87 8e 16 3e 2d e1 49 be d1 83 8a be
       0.17323028 0.14702807 -0.19714804 -0.27053693
0001a0 bb 79 b8 be 6c 14 b8 bc e0 8e 42 be a4 5a 9b be
       -0.36030373 -0.022470675 -0.18999815 -0.3034259
0001b0 00 f5 61 3e 64 d8 84 be 30 2b 0e 3e 20 12 0c 3f
       0.22066116 -0.25946343 0.13883662 0.54715157
0001c0 4d ff 33 bd 81 df 9a be d5 8f a7 be f6 3e 85 3e
       -0.043944646 -0.30248645 -0.32726923 0.26024598
0001d0 be 26 8a be 7d 0b 37 3e 3e b9 c4 3e 80 06 87 3e
       -0.26982683 0.17875476 0.3842258 0.26372147
0001e0 10 9d b9 bd b1 dd 3d 3e 67 bc 3d 3e a6 6b 4f bd
       -0.090631604 0.185416 0.18528901 -0.05063977
0001f0 56 6e c9 be ad 72 78 be ca eb cd bd 75 10 e3 3e
       -0.39341992 -0.24262495 -0.10054739 0.44348493
000200 fa 58 1b 3f 48 05 a6 bd 17 b7 27 3e aa b0 a3 bd
       0.6068264 -0.08106476 0.16378437 -0.0799268
000210 58 dc 80 3d 80 18 ba 3e a9 31 53 be 25 ae 08 3d
       0.06292027 0.36346817 -0.20624413 0.033369202
000220 31 f5 02 3e da f1 54 3e 3d 13 26 bf 09 4a 29 be
       0.12788846 0.20795384 -0.64873105 -0.16532148
000230 30 33 d9 bd 6a b4 f9 3d 56 89 0b bd 42 7f 68 be
       -0.10605466 0.121926144 -0.03406652 -0.22704795
000240 dd 4a 11 bf b1 eb 53 be 1e 7e 80 3e 44 e4 c1 bd
       -0.5675486 -0.20695378 0.2509622 -0.09467366
000250 98 7d 9c be 70 ac 8c 3d ac 6f 0c be 4b bd 96 3e
       -0.3056457 0.06868827 -0.13714474 0.29441294
000260 b2 02 fe 3e 2f c4 23 3d ae 98 2e 3e d3 9e d9 3e
       0.4961143 0.039982017 0.1705043 0.42503986
000270 f6 22 b3 3e 65 7d 36 be 8f bb 08 3e 54 0f c8 3e
       0.3498761 -0.17821272 0.13352798 0.39074194
000280 92 4c 21 3e b5 53 1f bf 09 99 48 3e a3 80 b1 be
       0.15751866 -0.622371 0.19589628 -0.34668455
000290 d5 26 0a be ef 3f a1 3e d7 e8 9b bd 92 f1 3d 3e
       -0.13491376 0.3149409 -0.0761277 0.18549183
0002a0 cf b0 97 bd 10 ff cf 3c 15 46 a0 3e e8 3a d5 3e
       -0.074067704 0.025390178 0.31303468 0.41646504
0002b0 cb b5 27 3d ad 4b 5b be 94 fb 8f 3e 5b 22 36 3e
       0.040944856 -0.21415587 0.28121626 0.17786543
0002c0 21 60 f7 3d 42 8f fc bd ac f0 0e be ba 5f d7 bc
       0.12078882 -0.12332012 -0.13958997 -0.026290763
0002d0 44 e4 76 3a f9 1c 00 3e 7a 0f a6 3e 7b 52 a3 bd
       0.00094181695 0.12511052 0.32433683 -0.07974716
0002e0 a4 7c 79 3e fb 8b be 3d 6a f7 36 bd 31 2a 7a 3d
       0.24363953 0.09304043 -0.044669546 0.061075393
0002f0 fd 6f 86 3e 92 a7 d1 3e 0c 80 8c be 9d 0c d9 3c
       0.26257315 0.40948159 -0.27441442 0.026495272
000300 7e c6 14 3f f3 ee e0 3d 38 f4 2b 3e cc 6c bc 3d
       0.58115375 0.10983076 0.16792381 0.09200439
000310 72 b8 36 3e 44 63 8b 3e e8 fd 77 bf 3a 28 90 3f
       0.17843798 0.2722417 -0.96871805 1.1262276
000320 cd bf 0f be 38 ef 5e 3f f2 20 ad 3e 3d 49 13 3c
       -0.1403801 0.8708377 0.33814198 0.008989629
000330 ff 2c 94 be 68 c7 15 3f a1 92 5e 3e d1 3c a7 be
       -0.2894058 0.58507395 0.21735622 -0.32663587
000340 41 fa 8b 3e dc 88 2c 3e 7a 8a f1 3e 35 25 1a bf
       0.27339366 0.16849083 0.47175962 -0.60213023
000350 c1 31 9e bd ab 75 47 3d 34 16 33 be 78 d4 f7 3e
       -0.077243336 0.0486962 -0.17488939 0.48404288
000360 61 1a ed 3e 54 ca 03 3f 97 dd 5f 3e ea 9d 31 3e
       0.46309188 0.51480603 0.21861874 0.17345396
000370 bd cc 30 3f 35 9b 87 3e 6e d1 39 bd ba fc a0 3e
       0.69062406 0.264856 -0.045365743 0.31442815
000380 8e 52 26 bf c5 93 83 bd 90 ec 77 be ca f3 b6 3e
       -0.6496972 -0.06424669 -0.24211335 0.3573287
000390 b9 3c ca 3e e8 0f 33 3f 34 8f e1 3d 17 3e 65 be
       0.39499453 0.69946146 0.11013642 -0.22386967
0003a0 1a 31 81 bf 73 03 34 be 9a a3 b6 3e 93 9d f1 bd
       -1.009311 -0.17579441 0.35671693 -0.11797633
0003b0 4d bc 1e 3f 01 ed 43 be e0 3f dd be 64 cb 24 3f
       0.62006074 -0.19133379 -0.43212795 0.6437285
0003c0 41 80 1d bf e9 78 66 3f c5 a3 a9 be f7 47 76 3f
       -0.61523825 0.90028244 -0.3313276 0.9620356
0003d0 9e 53 0c bf bb d4 0b 3f 35 3e 22 3f e8 69 10 3f
       -0.5481509 0.54621476 0.6337617 0.564116
0003e0 89 6b 24 be 87 14 c7 3d 2d 8b 34 be 98 e8 02 bf
       -0.16056646 0.09720712 -0.17631216 -0.5113616
0003f0 4e b6 cd be e4 57 0c 3e bc 90 c6 3e e2 19 6e 3f
       -0.4017815 0.13705403 0.387823 0.93008244

lstm.bias_ih_l0 f4 [256]
000000 2c 60 88 bd 76 31 09 be d2 70 32 be ae 81 6b be
       -0.06658968 -0.13397774 -0.1742585 -0.22998688
000010 3f 91 26 be 14 8e 25 be b9 f7 ac bd 2f d2 83 be
       -0.16266344 -0.1616748 -0.08445687 -0.25746295
000020 62 b5 28 be 9b 87 8f be a4 77 8b be 83 fc 1c bd
       -0.16475442 -0.28033146 -0.27239716 -0.03832675
000030 01 b5 02 be 8f ba 3b be b5 2e 25 be 00 9f fe bd
       -0.1276436 -0.18332885 -0.16131099 -0.124326706
000040 d9 ab 13 3d 6c 4b dd bd a1 18 7b be 3b a4 df 3d
       0.03605256 -0.10805401 -0.24521114 0.10919996
000050 17 76 9c be 95 f3 8f be c3 7a 1f 3c 3e e9 70 be
       -0.30558845 -0.28115526 0.0097338585 -0.23526475
000060 16 d2 96 be e7 85 bb 3c 53 ef 7c be 29 7d 8e be
       -0.29457158 0.022890998 -0.2470067 -0.27829865
000070 01 d5 90 bc 49 d6 76 be 62 99 72 be 22 51 dc bd
       -0.017679693 -0.24105181 -0.23691323 -0.10757662
000080 13 a5 d1 bd 6a 78 aa be e6 31 bd 3d 92 2a 42 be
       -0.102365635 -0.33294994 0.09238033 -0.18961552
000090 6d 5d c2 bd 64 b6 95 be 8f ef cc bd c0 18 27 be
       -0.09490476 -0.29240716 -0.1000663 -0.16318035
0000a0 7a 2b 20 3c 83 d6 f6 3c d2 c9 0f be ca fa d8 be
       0.009775991 0.030131584 -0.14041832 -0.42378837
0000b0 21 bb 93 be 79 c6 55 be ae cc da bd 54 c1 56 bd
       -0.28853706 -0.20876493 -0.10683571 -0.052430466
0000c0 8c f8 5f be d1 70 0e be b0 9c 56 be 9a 18 29 be
       -0.21872157 -0.13910224 -0.20958209 -0.16513291
0000d0 5f 69 ae 3c 18 da 71 3d cd 67 6f bd 77 bf 5b be
       0.02129048 0.05904588 -0.0584486 -0.21459757
0000e0 ef 16 63 be c6 32 d1 bd 54 f3 a1 be 78 17 33 be
       -0.22176717 -0.102147624 -0.31630957 -0.17489421
0000f0 02 ea 80 be 28 1c 88 be 5c 50 02 be c8 26 77 3d
       -0.25178534 -0.26583982 -0.12725967 0.06033972
000100 1b 00 19 be 88 a0 39 be 0c 6b 37 bc d5 37 8d bb
       -0.14941446 -0.18127644 -0.011194956 -0.004309634
000110 05 93 33 3e 19 f5 5f 3e dd c4 4a be 48 14 3d be
       0.17536552 0.21870841 -0.1980166 -0.18464768
000120 8a 37 6e be 17 50 89 3d 9f 9b ad bd ef 05 2e bd
       -0.23263374 0.06704729 -0.08476948 -0.042486127
000130 82 53 c6 3d 7e 57 11 be e5 76 03 3c 0f f6 13 be
       0.096838966 -0.14193532 0.008023952 -0.14449333
000140 76 ca 40 be 44 a0 b4 3d 38 80 00 be 1c 3c 5d be
       -0.18827233 0.08819631 -0.12548912 -0.21604961
000150 ef d3 6e be 6a fa 10 be 22 b7 03 3e 3e f3 e4 3c
       -0.23323034 -0.14158025 0.12862828 0.027948018
000160 be d9 e2 3d 54 94 f0 bd 98 30 9a bd 7b 6f 86 bc
       0.11076687 -0.11747041 -0.075288 -0.01641058
000170 64 21 03 3e 67 66 a3 bd 9e 1c f8 bd 41 e4 dc 3d
       0.12805706 -0.07978516 -0.12114833 0.107857235
000180 96 f5 77 bd cf 29 a6 bd 29 61 65 bd 90 d4 14 3d
       -0.060536943 -0.08113443 -0.056000862 0.036335528
000190 67 3b b0 3d 59 66 c1 3d 4f 1d aa 3d a1 15 6d bd
       0.0860508 0.094433494 0.083063714 -0.057881955
0001a0 23 0a 84 bc 3d c6 a5 bd 54 03 d5 bc 51 aa 11 bc
       -0.016118115 -0.080944516 -0.026002564 -0.008890704
0001b0 9a a1 02 bd e4 9f c8 bc 4c 1b fb 3d c4 2d e0 3c
       -0.031892397 -0.024490304 0.12261066 0.027365573
0001c0 ab b8 5e bd 9a ca 8a bd 43 3b b4 bc e8 ed 94 bd
       -0.05437533 -0.067769244 -0.022000914 -0.072719395
0001d0 6a e5 70 be 44 7a e5 3c 5e dd 0d bc 08 df 89 bc
       -0.23525015 0.028012402 -0.008658735 -0.016829982
0001e0 56 73 93 be 39 86 c4 bd d7 45 25 be e4 de 28 3e
       -0.28798932 -0.095959134 -0.16139923 0.16491276
0001f0 8c 40 b2 3d 3e b1 4f be 0f 6b 1e be ff 3c a4 be
       0.087037176 -0.20282456 -0.15470527 -0.32077786
000200 cb 47 99 bc dc 67 ee 3c 63 a3 1a 3d 99 da 0f 3d
       -0.018710991 0.029102258 0.037753474 0.03512058
000210 89 b5 08 3d 1a bb 49 3d ed 0f 6f bd 98 a2 1e 3d
       0.03337625 0.0492507 -0.058364797 0.03872928
000220 4b 3b 12 bd 73 10 c2 bd 7d 0c 29 bd 06 34 7c bc
       -0.035701077 -0.09475794 -0.041271675 -0.015393263
000230 3b 09 03 3c 9e 92 f6 3b ee 82 48 3d 61 88 bc bd
       0.007997806 0.0075248023 0.04895299 -0.092057
000240 61 2e 8f 3c c0 5e 8f bd 78 75 26 bd c9 12 5a bd
       0.01747817 -0.07000494 -0.04063937 -0.05324057
000250 f0 6c 39 3d 1a 81 a6 3c b8 41 de bd 4b 02 00 3d
       0.045269907 0.020325232 -0.108523786 0.031252187
000260 4b 4e 8c 3d d9 5e 99 bd cb 36 1b bd d8 66 88 bd
       0.06850871 -0.07488794 -0.03789405 -0.06660241
000270 0d ce 93 3c 7c fc c3 3d 2a 99 8b 3d b5 b0 10 3d
       0.018042589 0.09569642 0.06816323 0.03532477
000280 00 5a 6c bd 4d ea 90 bd 6a fc 97 bd f8 b0 09 3d
       -0.05770302 -0.07075939 -0.07421191 0.033616036
000290 7e b2 aa 3c ef 95 11 3d e2 d7 97 bb fd 82 14 bd
       0.020837065 0.03554338 -0.0046338895 -0.036257733
0002a0 9b c4 42 3d e8 f1 ad bd 71 a7 1c bd cd 61 c5 bc
       0.04755078 -0.084934056 -0.038245622 -0.024094487
0002b0 65 4e fb 3c a8 ff ab bd e6 0c d2 bc 2b 9d 33 bc
       0.03067703 -0.08398372 -0.025640916 -0.010962765
0002c0 bd 54 b6 3d 67 cf 19 3d be a8 1c 3d 0d ec a1 bc
       0.08902881 0.03755131 0.038246863 -0.019765878
0002d0 c1 8c 5c bd 8a 9a 93 3d 29 3d 93 bd c8 4f 31 3d
       -0.05384517 0.0720721 -0.071894 0.043288976
0002e0 85 17 cd bc b1 6e 3a bb 64 bc 0f 3d 93 ad b5 bd
       -0.025035629 -0.0028447325 0.035091773 -0.08870997
0002f0 42 53 f1 bc 73 d7 9a 3d e6 88 95 3d 49 d0 78 3d
       -0.029458646 0.07560625 0.07301502 0.06074551
000300 c3 1e 80 bd 4b 2b 80 bd bb 48 07 be d8 a0 a4 3d
       -0.06255867 -0.062582575 -0.13211338 0.08038491
000310 29 81 12 3e 89 b7 58 3e f3 f7 31 3d e7 30 c4 3d
       0.14307083 0.21163763 0.043449353 0.0957964
000320 8c 3e ec bc 6b 0b 0f 3c b1 74 1a 3d 12 9d d7 ba
       -0.028838418 0.00873075 0.03770894 -0.0016450009
000330 df 93 b4 bd 20 43 e5 3c 01 0d 41 3c a6 0f 3f 3c
       -0.08817267 0.02798611 0.0117828855 0.011661446
000340 e2 b3 6e bd e6 41 c4 3c f5 07 b2 bd d7 07 01 3e
       -0.05827702 0.023957204 -0.08692924 0.12600647
000350 9b 0c 87 be d8 e3 0e bd 78 af c8 3c 64 a6 e0 3c
       -0.26376805 -0.034885257 0.024497733 0.027423091
000360 ec 91 5c bd aa ae 22 be 69 a0 3f be 49 df fb bd
       -0.0538501 -0.15886942 -0.18713535 -0.12298448
000370 f8 5c 1b 3e de d7 74 bd e1 a9 27 bd f2 04 8b bc
       0.15172184 -0.05977618 -0.040933494 -0.016970132
000380 f9 53 33 bc d1 6e 1f be 0d 34 d9 bd 88 63 83 3d
       -0.010945314 -0.15569617 -0.10605631 0.064154685
000390 c1 78 17 3e ff 21 43 3e 8b 8a 5e 3d a9 4f cb bd
       0.14792158 0.19055937 0.054331344 -0.09927303
0003a0 c5 e4 28 3d 75 a0 70 bd d3 59 16 3d 62 25 31 be
       0.041233797 -0.058746774 0.036706757 -0.17299417
0003b0 f5 39 ba bc 7f af 19 be 40 e1 0e 3d 38 53 7e bd
       -0.022732714 -0.15008353 0.034882784 -0.062091082
0003c0 a9 c2 30 bd 2d a2 a5 bc 43 ab 6d 3d dd d8 c1 bd
       -0.043154392 -0.020218933 0.058024656 -0.094651915
0003d0 50 06 af bd 4e 00 31 3e f7 84 62 3e d7 08 0b 3c
       -0.08546126 0.17285272 0.22121035 0.008485994
0003e0 d9 39 4f be 4d 47 30 3d cd d9 4d be ab 29 7a 3e
       -0.20236911 0.043036748 -0.20102616 0.24429958
0003f0 17 4b 92 bd 94 2e 54 3c d9 fd 09 be 87 7f 97 bc
       -0.071432285 0.012950558 -0.13475741 -0.018493427

lstm.bias_hh_l0 f4 [256]
000000 7d ab 5e bc d0 b2 0d be 58 58 dc 3c 83 23 dc bd
       -0.013590691 -0.13837743 0.026897594 -0.10748961
000010 dd 3f 26 bc 4e b5 32 be 13 b7 33 be 0a 35 76 be
       -0.010147062 -0.17451975 -0.17550306 -0.2404367
000020 de e0 23 be 10 2b 9d bd 86 02 8b be 4f a0 43 be
       -0.16003749 -0.07674229 -0.27150363 -0.19104122
000030 51 8a 13 be ad 7a 29 be 75 67 18 be 19 d4 22 be
       -0.14408232 -0.16550703 -0.14883216 -0.15901221
000040 87 0b 29 3d 33 47 24 be 7f 9c 69 be 3b d5 3d bd
       0.04127076 -0.16042785 -0.22813605 -0.04634593
000050 f4 3e 0d be b1 07 7e be 27 20 06 be 88 7b d5 bd
       -0.13793546 -0.24807622 -0.13098203 -0.10423952
000060 ff de 7a be d6 0c 1c 3d 7e 0f 16 be 1d f5 a2 be
       -0.24499129 0.03809818 -0.14654347 -0.31827632
000070 c1 f7 8d bd aa c5 32 be 4f 43 c3 bd e0 fc 86 be
       -0.06932021 -0.17458215 -0.095343225 -0.26364803
000080 49 00 16 be 05 1f 0b be 58 eb c8 bd 07 71 9a be
       -0.14648546 -0.13586052 -0.09810513 -0.30164358
000090 4f d1 38 be 0c 8b c3 be 91 17 e0 bd 10 1e 53 be
       -0.18048595 -0.38192022 -0.10941995 -0.20616937
0000a0 04 f5 a8 bd dc 13 2c be e6 f7 86 3d 72 82 98 be
       -0.08249858 -0.16804451 0.065902516 -0.29787022
0000b0 ef 3c ed bd 46 8c 1d be 3e 6d 64 be 29 4c bb bc
       -0.11583888 -0.15385541 -0.22307298 -0.022863464
0000c0 48 5f 15 be cd f6 4d bd 58 74 07 be cd 87 a6 bc
       -0.14587128 -0.050284196 -0.13227975 -0.020328427
0000d0 20 ae e4 bb 0b f8 b8 3c 55 99 b0 bd 18 8d a8 be
       -0.006978765 0.022579214 -0.08622996 -0.32920146
0000e0 23 c7 56 be 28 93 0a be 53 53 85 be bc 65 56 3d
       -0.20974402 -0.13532698 -0.26040134 0.052343115
0000f0 5e 44 95 be 6c c6 35 be 5f e6 a6 be 7f 34 22 bd
       -0.29153723 -0.17751473 -0.32597634 -0.039600845
000100 d2 a8 77 bd 0c a2 36 be b6 28 45 be c4 b0 1a be
       -0.060463734 -0.17835253 -0.19253811 -0.15106493
000110 4b a3 99 3d a3 97 85 3e 1a 45 e2 bd 1d ec e6 bc
       0.07501849 0.26092252 -0.11048336 -0.02818876
000120 8e 5e 5a bd 09 d7 b5 39 82 41 c8 bc 0f 9a 97 bd
       -0.05331283 0.00034683224 -0.024445299 -0.07402431
000130 87 dd 69 3d a9 8d b8 be 1b 97 5a 3d 5b ff 2d be
       0.05709603 -0.36045578 0.05336676 -0.16991942
000140 0c 82 02 be f3 ba 17 3e 02 26 0f bd 2e 80 80 be
       -0.12744921 0.14817409 -0.034948356 -0.25097793
000150 cb 83 f0 bd 28 a9 6c be e8 f9 43 bb 9f f9 1b 3c
       -0.117438875 -0.23111403 -0.0029903594 0.0095199635
000160 1d 4f c7 bc 0e 7b 6b 3d d9 5c 73 be 81 98 73 3c
       -0.024329716 0.0574904 -0.23765887 0.014867903
000170 7f f0 5a 3d 18 62 ca bd 7f 28 42 bd 20 1f 4c bd
       0.05345201 -0.09881991 -0.0474019 -0.04983437
000180 e2 98 63 bd 8a 89 29 be 50 78 9b bd 80 55 c4 3d
       -0.055565722 -0.16556373 -0.07591307 0.0958662
000190 a3 63 8b 3b b9 78 2a 3d 9b 2d 81 bd dc 7a 25 be
       0.004253821 0.041619036 -0.06307527 -0.16160148
0001a0 3a 30 3f be c0 80 62 bd 51 5a f3 bc 7a 07 ed bd
       -0.1867074 -0.055298567 -0.029706152 -0.11573692
0001b0 0a 64 dc bd d4 3e 02 be 72 b1 0c bd 39 c2 98 bd
       -0.107612684 -0.1271928 -0.034348913 -0.0745892
0001c0 f9 2b 6e bc 22 6a 9a 3c 05 e7 9b 3b 80 c6 bb bd
       -0.014536851 0.018849436 0.0047577643 -0.0916872
0001d0 c9 0d e5 bd 73 a2 d5 3b 42 63 ea 3d 62 46 93 3d
       -0.1118427 0.0065196096 0.11444713 0.07191159
0001e0 97 19 a5 be 55 df 8a 3c 48 c4 b3 3a 57 f8 31 3d
       -0.32246086 0.016952196 0.0013715113 0.043449726
0001f0 27 d9 be 3b c8 49 4f be c9 2c 17 be 16 a7 00 be
       0.0058242264 -0.20242989 -0.14763178 -0.12563738
000200 0a 70 13 3b 6e 9e 18 3c 50 77 04 bd 6d 16 a5 3c
       0.00224972 0.009315116 -0.032340348 0.020152295
000210 f8 94 71 3c 68 4b 58 bc f4 dc 23 39 a6 86 16 3d
       0.01474499 -0.013201572 0.00015627203 0.036749505
000220 fb 00 91 3c 7c 20 8b 3d 0b 47 a7 3d 27 8e 8e 3d
       0.017700663 0.06793305 0.08167847 0.06960707
000230 dd c5 9d 3d e8 e8 9b 3d bb ce 01 3d 19 20 6a 3d
       0.07703755 0.07612783 0.031691294 0.057159517
000240 63 b2 48 bb 7a ee cb 3d 50 8b 6c 3d 47 5d 82 bd
       -0.0030623905 0.09957595 0.057750046 -0.063654475
000250 eb cf 18 bc 51 f8 11 3c 4a 0f 33 3d f2 e0 6c 3c
       -0.009326915 0.008909301 0.043715753 0.014457928
000260 12 95 e3 bc 1e 74 1d 3d bf c0 00 3b 27 7c e5 3c
       -0.027781043 0.038440816 0.0019646136 0.028013302
000270 c7 5d 22 3b 48 c3 24 bb 6d 5d 25 bd e4 2c da 3c
       0.0024775134 -0.002514081 -0.0403723 0.026632734
000280 d8 a1 92 bd 93 f2 c5 3d 9e 43 b8 3c c7 f3 64 bd
       -0.071597755 0.09665408 0.02249318 -0.055896547
000290 ae 9a 39 3d 5e 41 b0 3b 3d cc 28 bd d9 0a 67 3d
       0.04531353 0.005378886 -0.0412104 0.05640683
0002a0 e5 0b 89 bd 62 1f 66 3d 71 23 5a 3d ba fd cc 3b
       -0.06691722 0.056182273 0.053256456 0.0062558325
0002b0 80 66 92 bb 9e af da 3c 8a b0 40 bd a8 47 13 3d
       -0.0044677854 0.026695069 -0.04704336 0.03595701
0002c0 6d 21 ce bd 00 04 8f bb 40 e2 33 bd 26 15 1f 3d
       -0.10064969 -0.0043644905 -0.04391694 0.038838528
0002d0 ab 4a 0e bd 09 7b ea bc 4b 1f ab 3d 01 3b a7 3b
       -0.034739178 -0.02862312 0.08355578 0.0051034694
0002e0 81 a5 ea 3c cf e9 b0 3c 82 c9 f6 bb f3 92 a6 3d
       0.028643372 0.021595864 -0.007531346 0.08133497
0002f0 b4 10 e2 bb 1b a8 cf bd 87 89 04 3c bf 4a 0a 3d
       -0.006898964 -0.101394854 0.00808943 0.03376269
000300 c8 f0 4f 3d ef ca 20 bd 75 0a a1 bd 89 09 11 be
       0.050766736 -0.039256033 -0.07863323 -0.14163794
000310 bb 8f c1 3c 65 17 73 3e 24 50 01 be 29 74 ab 3d
       0.023628106 0.23739393 -0.12628227 0.08371765
000320 7f f5 40 3d ea f4 01 be 69 bb 0f bd d6 9a bd bd
       0.047109123 -0.12691084 -0.035090838 -0.09258048
000330 0f 6c 56 3c 3f 19 e9 3c 49 2f 53 3d cf c9 3a bd
       0.013087287 0.028454421 0.051558767 -0.045602616
000340 6d bd a2 bd f2 b6 ab bd a1 ab f8 bd 6c 36 11 3d
       -0.07946286 -0.083845034 -0.121421106 0.03545229
000350 7e 0d 5c be 4f a0 24 be 2f 41 d3 3d 7b c7 f8 3d
       -0.21489522 -0.16076778 0.10315167 0.12147423
000360 8c 55 fc 3c db e0 77 bd 4b 62 37 be 29 2c 3d 3c
       0.03080251 -0.060517173 -0.1790859 0.011546173
000370 27 ba 11 bb 95 d1 8d 3d 6a d1 15 be 84 f9 44 bc
       -0.00222362 0.0692474 -0.14630666 -0.01202238
000380 93 1d c8 bd 12 d5 91 bd 7f 94 0b be 22 62 ec bd
       -0.09771266 -0.07120718 -0.13630866 -0.11542155
000390 af 55 85 bd 7b 44 9f 3d 56 62 1a 3e 6c 7d 24 bd
       -0.065104835 0.077767335 0.15076575 -0.040158674
0003a0 49 c4 e3 bd 6d 8a 11 be fb bb b6 bb ae 17 32 be
       -0.11121423 -0.14212961 -0.0055766082 -0.17391846
0003b0 8c 71 6b bd 26 21 c0 bd e3 a4 95 bc 06 b0 4b bd
       -0.057481334 -0.093813226 -0.0182671 -0.049728416
0003c0 61 df a7 3d bc 86 83 bc 17 1b f6 3c 5b 4e 02 be
       0.08196903 -0.016055457 0.030042214 -0.12725203
0003d0 46 f1 e7 3c 58 aa 7a 3d 27 c4 60 3e 7f f3 be bd
       0.02831329 0.06119761 0.21949826 -0.09323787
0003e0 40 2c e1 bb 93 a0 8d bd fe 69 d3 bc 5f a7 60 3e
       -0.00687173 -0.06915393 -0.025807377 0.21938847
0003f0 33 a5 9d 3d 69 1d 2e be a1 29 8c bd b1 1c 1b 3e
       0.07697525 -0.17003407 -0.068438776 0.15147664

lstm.weight_ih_l0_reverse f4 [256, 32]
000000 11 0f 04 be f6 0d ef 3d 9c b0 c7 bb 45 2d 69 bb
       -0.12896372 0.11672585 -0.0060940515 -0.0035579961
000010 77 e8 5d 3e 4e 29 03 bc 39 f0 80 3b ef 8e 71 3d
       0.2167071 -0.008005453 0.003934887 0.058974203
000020 67 a5 bd bd 01 61 88 bd 5c b2 1a bd d2 25 53 3a
       -0.092600636 -0.06659127 -0.037767753 0.0008054647
000030 5a 98 b7 be bc ec 13 3e 64 db ee 3d 44 33 b2 be
       -0.35858423 0.14445776 0.11662939 -0.34804738
000040 26 2a 55 be 2a 45 8c bd b0 b1 87 3d bf d5 23 be
       -0.2081686 -0.068491295 0.06625688 -0.15999506
000050 75 54 36 3e 32 66 a5 be b2 da 93 be c6 75 4a 3d
       0.17805655 -0.3230453 -0.2887779 0.049428724
000060 a2 19 66 bc c6 68 63 3d 17 7b 99 3d 6f 47 81 3e
       -0.014044197 0.05551984 0.07494181 0.25249812
000070 5f 00 10 bc a1 30 f7 bd 54 02 79 be 60 fb d7 be
       -0.008789151 -0.12069822 -0.24317294 -0.4218397
000080 f8 3b eb bd b9 96 20 3d 8f a7 04 bd 33 ed 51 bb
       -0.114860475 0.03920624 -0.03238636 -0.003203225
000090 ac 2f 2f 3d 1e d6 70 be 84 a2 16 3b c5 7a 7f 3e
       0.042770073 -0.23519179 0.002298505 0.24949177
0000a0 f6 fe 56 be ec 2f 07 be 03 6c 60 3c bd 12 19 bd
       -0.20995697 -0.13201874 0.013697627 -0.037371386
0000b0 24 e1 b0 be f4 a5 18 be 4b f9 c6 3d 9c 6b 4e 3d
       -0.3454677 -0.14907056 0.097155176 0.050395593
0000c0 9e 3e 83 3d 50 00 69 3e 07 f4 5b bd 34 21 43 3a
       0.06408428 0.22754025 -0.05369952 0.00074436073
0000d0 76 79 85 3e ff 63 df 3d 5b e1 00 3e 2b ee 4a be
       0.2606923 0.109077446 0.12585966 -0.19817416
0000e0 e1 f1 54 be 2b c5 99 3d 89 fa 95 3e ce 24 c5 bc
       -0.20795394 0.0750831 0.29292706 -0.024065401
0000f0 92 8c 55 bc 4d c0 8e be ea 0f 2a be d1 29 9f 3d
       -0.013034003 -0.2788109 -0.16607633 0.07771648
000100 2d 5d e7 bd 85 af b4 be 2c 0a a1 bd d7 60 29 3e
       -0.11297069 -0.3529016 -0.07863268 0.16540848
000110 98 ff 00 3d bc 4f aa bc 40 87 48 be f4 68 3d 3e
       0.031493753 -0.020789973 -0.19582844 0.18497068
000120 21 fc 1b bd a8 44 ec 3d d6 b2 ae bd 2e 56 b6 be
       -0.038082246 0.11536533 -0.08530204 -0.35612625
000130 23 29 cd 3d 18 27 5c be fd 20 91 bd 9a 92 1e bd
       0.10017612 -0.21499288 -0.0708637 -0.03871403
000140 2d 13 0e be df 78 18 3e 47 90 34 3e 5e 9a ee 3d
       -0.13874502 0.14889859 0.17633162 0.11650537
000150 1d 3f c3 bb 09 13 68 be 69 14 25 be a9 3c e3 bc
       -0.0059584514 -0.22663511 -0.16121067 -0.027738886
000160 98 81 5e 3e 27 51 0e 3d 5a ae 66 3e 64 c8 fa bd
       0.21729124 0.03474536 0.22527447 -0.12245253
000170 e5 3f ba bd e1 71 10 bd 36 1c c9 3d 85 90 bc be
       -0.09094218 -0.035264853 0.09819834 -0.3682901
000180 27 6d d2 bd d4 66 a4 3d 4b e6 33 3e 9f 30 c0 bd
       -0.102747254 0.080274254 0.17568319 -0.09384274
000190 02 af 26 3e 58 0d ab be 87 25 8e 3c 49 34 05 be
       0.16277698 -0.33408618 0.017351879 -0.13008226
0001a0 35 6d 0a be 09 36 32 3e ed 1a 06 bd 49 0b 42 3e
       -0.13518222 0.17403425 -0.032740522 0.18949617
0001b0 f9 f9 d0 3d 74 7c 10 be fb 59 bd bd a1 49 29 bd
       0.102039285 -0.14109975 -0.09245678 -0.041329984
0001c0 b5 9e 81 3e 1a c8 19 3c ff 56 30 be 6f 16 71 be
       0.25316396 0.009386087 -0.17220686 -0.23543714
0001d0 c6 a3 92 3e 64 5b 68 3d 6e c5 74 3e 75 a1 4c be
       0.28640574 0.056727782 0.23903438 -0.19983466
0001e0 a7 46 08 3e 65 45 f6 3c 5d df b0 bd 82 81 69 be
       0.13308202 0.030062387 -0.08636353 -0.2280331
0001f0 10 bb 4f be d9 68 0b be ef 05 0d 3b 38 2b a2 bd
       -0.20286202 -0.13614215 0.002151843 -0.079183996
000200 a0 b3 ab 3e e2 8f 34 3e 8f ab 8d 3e bc a5 19 3e
       0.3353548 0.17633012 0.2766995 0.15004629
000210 dc 7f 67 3c cb 47 c7 bd 32 6a b7 3e 24 2a 09 bc
       0.014129605 -0.0973049 0.35823208 -0.0083718635
000220 e6 4f a6 3b f9 2c 0c be 30 7d ba 3e 1a 63 07 3d
       0.0050754426 -0.1368903 0.36423635 0.033053495
000230 ad 49 80 3d 9a 36 42 3d ba 1b 59 3d 51 5c d3 be
       0.062640525 0.047415353 0.053004958 -0.4128137
000240 3d a8 c1 bd c3 ed 9c 3d 8d f7 20 bd 9c ae a8 bb
       -0.09455917 0.07662537 -0.039298583 -0.005147768
000250 38 7d 9d 3c 53 82 12 be 10 b5 ca 3d ec 16 00 3c
       0.019224748 -0.14307527 0.09897816 0.007817965
000260 f8 3d a0 3e 8f 4f 01 bd 6c b2 82 3d 31 c3 7c 3e
       0.31297278 -0.031570014 0.063816875 0.24683835
000270 2e 71 6a 3e 5c 6b 81 3e 9c d7 73 bd 78 3b 37 be
       0.22894737 0.2527722 -0.059531793 -0.1789378
000280 b5 40 00 3c 1b 2c cf bb aa d9 2e bd 2f a0 de bd
       0.007827927 -0.0063223965 -0.04268805 -0.10870396
000290 ce b9 27 3e 29 91 cc 3e 42 f7 92 3e 4c 4d 9a 3e
       0.16379473 0.39954498 0.28704268 0.30137098
0002a0 e5 7c 8d 3d bd 66 fd be cb e0 61 3d e4 4f cc 3e
       0.06908587 -0.49492446 0.05514602 0.39904702
0002b0 9b 33 9f bd 83 08 ef 3d d1 5d 51 3c ee 90 2a be
       -0.07773515 0.11671545 0.012778715 -0.16656849
0002c0 97 88 f8 bd ca 5b 05 3e 34 1c 33 3e d1 a4 c5 3d
       -0.121354274 0.13023296 0.17491227 0.09650577
0002d0 d0 13 36 3e dd 9b fc 3d 3d d8 dd 3e af 18 aa bc
       0.17780995 0.12334416 0.4332904 -0.020763723
0002e0 46 c4 59 3e 97 eb 15 3d 33 f8 43 bd 4c ad d3 bc
       0.21266279 0.03660163 -0.047844123 -0.02583947
0002f0 7a 69 e0 3d 62 2e 32 3e f8 e2 81 be a0 9c 80 bd
       0.10957618 0.17400506 -0.25368476 -0.06279874
000300 5b a7 ed bb 7e 01 84 bd 3e 95 32 bd f8 fd 75 bd
       -0.0072526163 -0.06445597 -0.04359936 -0.060056657
000310 77 bb d4 3d e0 06 a5 bd f7 05 0b bd c3 22 bb bd
       0.103873186 -0.08057952 -0.033941235 -0.0913749
000320 db 32 88 bc 1c 3b fc bd 95 a3 05 bd 7b e2 d5 bd
       -0.016625812 -0.12315962 -0.032626707 -0.10443588
000330 85 19 d7 3d c3 5b b4 3d d1 7d 62 3c bf 14 0f 3d
       0.10502914 0.08806565 0.013823942 0.034931894
000340 de 61 9b 3d a2 48 68 3d d6 ab ca 3d 97 26 5b be
       0.07587026 0.056709893 0.09896056 -0.2140144
000350 57 e8 27 3c 9c 0d ea 3d d4 02 7c 3c eb e3 49 bc
       0.010248265 0.11428377 0.015381534 -0.012322406
000360 10 5b 9e be fa 49 8f be 37 c9 ac 3d 0e 13 14 be
       -0.3092885 -0.27986127 0.08436816 -0.14460394
000370 0c 42 84 3d 44 dc ec bd 4f cf 48 3d 10 42 c4 bc
       0.0645791 -0.1156545 0.04902583 -0.023957282
000380 a3 f8 b1 3c 2b 2b 02 3e d9 fe 44 be 29 17 9c 3d
       0.021725005 0.1271178 -0.19237842 0.07621605
000390 ed 48 3c bd d3 b5 62 3d 7b 5c 70 3d 90 20 98 bc
       -0.045967985 0.055349182 0.058681946 -0.018570215
0003a0 78 35 af be 9c bf 6b be 1e d8 c1 bd 5b fd 15 be
       -0.3422048 -0.23022312 -0.09465049 -0.14647429
0003b0 a1 60 85 3e 91 44 e2 3c 9e f4 ee bd 21 cb 16 bd
       0.26050285 0.027620586 -0.11667751 -0.036814813
0003c0 80 a1 32 3e 63 cc 17 3e c1 6c e3 3d 0b 2d 0f bd
       0.1744442 0.14824061 0.111047275 -0.034955066
0003d0 a1 7f 83 3d 9b 40 8a bd 7d 70 0d be 41 32 e9 bd
       0.06420828 -0.06750604 -0.13812442 -0.11386538
0003e0 a2 cf e1 bc 11 80 44 bd 3c 52 05 be 0a b7 29 3e
       -0.027564827 -0.047973696 -0.13019651 0.1657373
0003f0 58 0c 8d 3d 20 a6 d4 bc 90 1c 04 3e bb 43 24 be
       0.0688712 -0.02595812 0.1290152 -0.16041462

lstm.weight_hh_l0_reverse f4 [256, 64]
000000 51 3e 0e 3f 99 a7 97 3b b7 d6 f8 3d 17 40 00 bf
       0.5556384 0.0046281335 0.121503286 -0.50097793
000010 57 ce 47 bd e5 27 7b 3e a9 5f f4 bd c7 44 14 be
       -0.048780765 0.24526937 -0.11932308 -0.14479361
000020 cd 06 75 3c 37 65 77 3e be 55 ce 3e ad 2f 03 bd
       0.014955235 0.24159704 0.4029979 -0.03202789
000030 54 fd 88 3d de f5 c4 3d 98 d0 f9 3e 9a 94 a7 3d
       0.066889435 0.09617208 0.48791957 0.081826404
000040 f7 fe cb 3d 52 b0 8f 3d 01 f0 0e bc 02 43 f4 bd
       0.0996074 0.07016052 -0.008724214 -0.11926843
000050 e7 66 2c bd 61 50 33 3e 7f 73 d5 3d 38 3e 6a 3d
       -0.042090323 0.17511131 0.1042242 0.057188243
000060 ae f7 61 be 35 8f 8f 3e 4a b9 f9 be 89 0a 0b 3f
       -0.22067139 0.28038946 -0.48774177 0.5431295
000070 de 56 2a 3d 67 ff 25 3c 12 63 5c bc 1a a5 c3 3e
       0.04158675 0.010131693 -0.013451355 0.382119
000080 c8 ee 64 be 75 1c b9 3e 57 ca 06 3e ce 0f 42 3e
       -0.22356713 0.36154523 0.13163124 0.18951342
000090 ca 02 89 3c f4 e9 87 3e 78 e1 b1 bd f2 39 37 3e
       0.016724963 0.2654568 -0.08685583 0.17893198
0000a0 9f c1 50 3e 84 ef ea 3d 4d 95 eb 3d f6 94 ae 3d
       0.2038636 0.11471465 0.11503086 0.08524506
0000b0 5c cc a6 bb 07 aa cc bd c4 38 a9 3e e6 e0 56 3d
       -0.0050902795 -0.09993368 0.3305112 0.052460574
0000c0 32 95 f8 3c 83 95 52 bd 7d 9a 0e 3e aa bb 37 be
       0.03034458 -0.051412117 0.1392612 -0.17942682
0000d0 32 3b 1a be 29 5c 4c be ee 4f fd 3d 62 7a 19 bd
       -0.15061644 -0.19957031 0.12368761 -0.03747023
0000e0 76 24 ee bc e4 ef 8f bd 71 e2 3b be 93 13 c6 bd
       -0.02907012 -0.070281774 -0.183481 -0.09671702
0000f0 73 6f c3 3d 8f 9d a8 3d b1 a2 7b bd 7d 53 1f 3e
       0.095427416 0.08233177 -0.06143445 0.15559192
000100 6c b9 16 3e 3e 8b 08 be 62 e6 f6 3d 98 68 8a bd
       0.1471917 -0.13334367 0.12055661 -0.06758231
000110 01 7d 18 bd 90 81 91 3d b0 0b 08 be e6 a5 65 3e
       -0.037228588 0.0710479 -0.13285708 0.22426566
000120 72 28 43 bc dd 70 e5 bc c2 4e 0e 3e 75 4d 02 bd
       -0.011911498 -0.028007919 0.13897231 -0.03181215
000130 ea 17 18 3d 9f 5e 17 be 16 74 8c bd c2 82 03 be
       0.03713218 -0.14782189 -0.06858079 -0.12842849
000140 1c 8f 77 3e 8e 87 5f be 4e a3 ad be cb 68 9c be
       0.24175686 -0.21829054 -0.33913654 -0.305487
000150 0d 26 37 3e a2 cb c8 bd 32 f7 b9 3e fb 03 00 3e
       0.17885609 -0.09804465 0.36321408 0.12501518
000160 6e 1b 67 be 69 44 5a 3d 8a 3d 80 be 3b 9f 91 3e
       -0.22569057 0.053287897 -0.2504695 0.28441796
000170 03 8f 88 bd 5d 91 bb 3e 15 6c 89 bc ff bc d5 3d
       -0.06667902 0.3663434 -0.01677517 0.10436439
000180 70 57 3f 3d 3b 9d 21 be fc cf b4 bc 47 b2 c2 3d
       0.046714246 -0.15782635 -0.02207183 0.0950666
000190 90 60 88 3d b6 b3 cf be eb c5 ae bd 95 51 50 3e
       0.06659043 -0.40566796 -0.085338436 0.20343621
0001a0 dc 2c be 3e e6 6a dd 3e bf ab f4 bd c3 96 3e 3e
       0.371436 0.4324562 -0.119468205 0.18612199
0001b0 e5 6b 51 3d 19 d6 9f be 81 4c b9 3d 10 a8 21 3e
       0.051128287 -0.3121803 0.09047795 0.15786767
0001c0 04 8b ae 3e ac 9f 12 be 70 bc 96 3e 76 0f 94 be
       0.34090436 -0.14318722 0.2944064 -0.28918046
0001d0 ed e2 64 3e 60 0c 68 3d af 23 db 3c 0d e8 79 be
       0.2235219 0.056652427 0.026750414 -0.24404927
0001e0 5f 69 6f be 14 89 bf bd c8 2d 49 be 96 e1 dd bd
       -0.2338004 -0.093523175 -0.1964637 -0.10834043
0001f0 c5 2a a8 3d 15 1b ca 3c 7a aa b3 3c e3 5f ea 3d
       0.08211283 0.024671117 0.021931875 0.1144407
000200 c8 57 38 be e7 bd 64 3d e6 09 42 be 70 af 5f 3e
       -0.18002236 0.055845167 -0.18949088 0.21844268
000210 57 dd 57 bd e2 87 1f be 97 c7 e5 bd 1f e3 14 be
       -0.05270132 -0.15579179 -0.11219709 -0.14539765
000220 e3 28 44 be 94 9f 44 be 0c 63 40 3e 5e 15 54 3d
       -0.19156222 -0.19201499 0.18787783 0.05177819
000230 83 75 51 be 96 a9 a0 bd 25 4f 0f 3e d6 52 14 be
       -0.20454983 -0.07844846 0.13995035 -0.14484724
000240 47 c4 3a 3d ac 78 f9 bd 98 42 a3 3d 94 06 26 3e
       0.04559734 -0.121812195 0.07971686 0.16213447
000250 60 1d 90 3e 2f 7f e8 bd 61 30 68 be 5b 91 13 be
       0.2814741 -0.11352383 -0.22674705 -0.14410917
000260 a6 96 8c 3e 73 87 56 3d 50 ab c6 3d 1a f4 2c be
       0.27458686 0.05237527 0.09700644 -0.16889992
000270 74 10 32 be fe ff 13 bf cc 78 4d 3e 5e 7f bf bd
       -0.17389089 -0.5781249 0.20065612 -0.09350465
000280 44 49 74 bc f0 fe 93 3e 7d 71 00 be a8 41 07 3e
       -0.014910046 0.2890544 -0.12543292 0.1320864
000290 25 98 4f 3d 7b fa ac bc 35 57 02 be 76 d0 7a be
       0.050682206 -0.021115532 -0.1272858 -0.24493584
0002a0 30 58 e7 3c aa 89 6e be 3a 93 69 be f5 06 5b be
       0.028240293 -0.23294702 -0.22810069 -0.21389373
0002b0 3e df cd bd fb bd ee bd 40 0b 07 be 1b 26 1e be
       -0.10052346 -0.1165733 -0.13187885 -0.15444224
0002c0 4e fb 4a bd a9 9d 9b bc 22 74 64 be 41 57 cc 3d
       -0.04955607 -0.018996077 -0.22309926 0.0997758
0002d0 aa c8 3f be d6 07 97 be 57 65 81 be 25 67 2a be
       -0.18728891 -0.29498166 -0.2527263 -0.16640909
0002e0 72 2a 07 3c cc b3 27 3e 79 7f ff 3e cb 18 8e bd
       0.008249866 0.16377181 0.4990194 -0.06938323
0002f0 a6 8a 05 be a5 fc 9a be 0f b5 02 be e8 b2 89 3e
       -0.13041171 -0.30270877 -0.12764381 0.26894307
000300 2c ec e5 3e d3 7e 98 3e b0 99 15 3d d1 c5 d9 bd
       0.44906747 0.2978426 0.03652352 -0.106334336
000310 d7 5d 95 3e 37 50 2f 3b 8f 12 8e 3e ac 8f 82 3d
       0.29173157 0.0026750693 0.27748534 0.063750595
000320 0b 0e a0 3d 02 c2 15 bd e4 38 1f be 94 73 92 3e
       0.078151785 -0.036561973 -0.15549046 0.28603804
000330 e6 c9 31 3e 4c 93 d2 bd d9 7d 06 be 2c f7 93 3e
       0.17362174 -0.10282001 -0.13133945 0.28899515
000340 ec 1d 18 be 6f 46 69 be 30 f0 13 bd 8d 9d 25 3e
       -0.14855164 -0.22780775 -0.036117733 0.16173382
000350 76 9f ac be bf 7e a4 3d 26 19 ad be e0 0e 97 be
       -0.3371541 0.080319874 -0.3380825 -0.29503536
000360 90 d4 82 be b5 3d a5 be 16 d7 8c bd 60 38 a5 bd
       -0.25552797 -0.3227364 -0.06876962 -0.08067393
000370 43 44 10 3e b8 91 f8 3d 4f 09 b7 bd 53 59 11 3e
       0.1408854 0.12137169 -0.08937322 0.1419423
000380 43 76 cc bd 35 2d e3 3d e2 d9 da bd f9 52 99 3e
       -0.09983494 0.11092607 -0.10686089 0.29946116
000390 44 2d d4 bd 4c c5 70 3e 5a 9c f0 bd 0f 23 d5 3d
       -0.10360196 0.23512763 -0.11748572 0.104070775
0003a0 8c 72 03 be 9a 4e bf be 84 6e be bd e8 d9 89 be
       -0.12836665 -0.37364656 -0.09298423 -0.26924062
0003b0 4e 4d 53 be 13 0d 8a be f8 39 b4 3c 4e f7 a9 3d
       -0.20634958 -0.269631 0.022000298 0.08299123
0003c0 26 62 5e bd 37 82 4a 3d 9e b5 4b bd d5 48 35 be
       -0.05429282 0.04944059 -0.04973375 -0.17703564
0003d0 8c 58 7f be 0e 9e db 3d 26 df a1 3c 8b 8f 78 be
       -0.24936122 0.10723506 0.019759726 -0.24273507
0003e0 05 33 b1 3e 1c 09 6f be f4 78 18 bd 81 53 bc 3e
       0.34609237 -0.23343319 -0.037224725 0.36782458
0003f0 b2 b8 aa 3e 71 74 ad bd d6 01 0d 3e f8 a6 95 3d
       0.33344036 -0.08469475 0.13770232 0.073072374
